…
          "base_uri": "https://localhost:8080/"
        },
        "id": "LXQgeL6O-ppP",
        "outputId": "3e71daac-b6e1-47b4-cb3f-198d02bb7c0a"
      },
      "execution_count": null,
      "outputs": [
        {
          "output_type": "stream",
          "name": "stdout",
          "text": [
            "Model: \"sequential\"\n",
            "_________________________________________________________________\n",
            " Layer (type)                Output Shape              Param #   \n",
            "=================================================================\n",
            " conv2d (Conv2D)             (None, 28, 28, 60)        1560      \n",
            "                                                                 \n",
            " conv2d_1 (Conv2D)           (None, 24, 24, 60)        90060     \n",
            "                                                                 \n",
            " max_pooling2d (MaxPooling2D  (None, 12, 12, 60)       0         \n",
            " )                                                               \n",
            "                                                                 \n",
            " conv2d_2 (Conv2D)           (None, 10, 10, 30)        16230     \n",
            "                                                                 \n",
            " conv2d_3 (Conv2D)           (None, 8, 8, 30)          8130      \n",
            "                                                                 \n",
            " max_pooling2d_1 (MaxPooling  (None, 4, 4, 30)         0         \n",
            " 2D)                                                             \n",
            "                                                                 \n",
            " flatten (Flatten)           (None, 480)               0         \n",
            "                                                                 \n",
            " dense (Dense)               (None, 500)               240500    \n",
            "                                                                 \n",
            " dropout (Dropout)           (None, 500)               0         \n",
            "                                                                 \n",
            " dense_1 (Dense)             (None, 43)                21543     \n",
            "                                                                 \n",
            "=================================================================\n",
            "Total params: 378,023\n",
            "Trainable params: 378,023\n",
            "Non-trainable params: 0\n",
            "_________________________________________________________________\n",
            "None\n"
…
